models/testmodel.pt (torch_old, 127446 bytes, 7 tensors)

weight f4 [50, 512]
0	0xbcd1bcb9	-0.025602685
1	0x3d138372	0.036014028
2	0xbd2816b6	-0.041037284
3	0x3cd321d4	0.025772966
4	0x3c9cb6c5	0.01913012
5	0xbd02d53a	-0.03194163
6	0x3cc966d6	0.024585169
7	0x3d580145	0.052735586
8	0x3d738807	0.059455898
9	0xba71ff66	-0.0009231478
10	0x3d72ba9f	0.059260007
11	0xbc09d912	-0.00841357
12	0x3d16e8e7	0.036843207
13	0xba84133a	-0.0010076531
14	0xbcb1cfaa	-0.021705467
15	0x3ce9b09b	0.028526595
16	0x3d2533e2	0.040332682
17	0x3d199b61	0.037501696
18	0xbc970a53	-0.01843754
19	0xbcc314d4	-0.023813643
20	0xba8fbfaa	-0.0010967155
21	0xbc21d38b	-0.009877096
22	0x3dc6f1ea	0.0971411
23	0xbc34ba4f	-0.011030748
24	0x3d79e85f	0.061012622
25	0x3b83a37d	0.004017292
26	0x3d818662	0.063244596
27	0x3d9b7dbb	0.075923406
28	0xbd3d5deb	-0.046232145
29	0xbd2ed0cf	-0.042679604
30	0x3d23fdc0	0.040036917
31	0x3cfd0b35	0.030889133
32	0x3ceef6ad	0.029170359
33	0xbc876cb1	-0.01653132
34	0xbca53669	-0.020167546
35	0xbc0bd6fb	-0.008535142
36	0x3d5ed5bb	0.054403048
37	0xbbd175b6	-0.006392206
38	0xbd4b0fdf	-0.049575683
39	0x3c8ce64e	0.017199662
40	0x3d8774f5	0.06614105
41	0xbc3248b3	-0.010881591
42	0xbc0607db	-0.008180584
43	0x3dbc51cc	0.09195289
44	0xbc475170	-0.012165412
45	0xbc431f1b	-0.011909272
46	0x3d822db3	0.06356373
47	0x3d25d455	0.0404857
48	0xbbbd9301	-0.0057853465
49	0x3c5983a7	0.013276017
50	0x3d4b5989	0.049645934
51	0x3d0d587e	0.03450822
52	0x3dd3432b	0.10315546
53	0xbcced4b3	-0.025247907
54	0x3ccc9ef4	0.024978139
55	0x3cec90e4	0.028877683
56	0x3d87ed03	0.06637003
57	0x3d82d0b2	0.06387462
58	0x3d62aa87	0.05533841
59	0x3b77654f	0.0037749594
60	0x3da39e19	0.07989139
61	0x3d3abc4e	0.045589738
62	0x3d6b43f7	0.057437863
63	0xbd3a72f8	-0.0455198
64	0x3d924c48	0.07143456
65	0xbcfd0ba6	-0.030889343
66	0xbc65186a	-0.013982872
67	0x399c29de	0.00029785832
68	0x3dabffaa	0.083983734
69	0x3db85289	0.09000117
70	0x3db98321	0.09058214
71	0xbd648541	-0.055791143
72	0x3d49a618	0.049230665
73	0x3d523601	0.051321033
74	0x3d30beb0	0.043150604
75	0xbcf7c7ae	-0.030246582
76	0xbd4d35f4	-0.05010028
77	0xbcd77782	-0.026302103
78	0x3dc3ee77	0.09566968
79	0xbd65d690	-0.056112826
80	0xbd855706	-0.06510739
81	0xbc5a0795	-0.013307472
82	0xbb5a5d6a	-0.003331984
83	0x3ac2c6e8	0.0014860304
84	0x3d0271e6	0.031846903
85	0xbc16d569	-0.009206154
86	0x3d03f19e	0.032212846
87	0xbd53dfed	-0.051727224
88	0xbafeb63f	-0.0019432976
89	0x3d63a57f	0.05557775
90	0x3bddc695	0.0067680576
91	0xbcb8c416	-0.022554439
92	0x3d5fb524	0.05461611
93	0xbc2773c3	-0.010220471
94	0xbce03183	-0.027367359
95	0xbc40c27b	-0.011765118
96	0x3d9adc03	0.07561495
97	0xbc0ae04d	-0.008476329
98	0x3d83647a	0.06415649
99	0x3d8cff53	0.06884637
100	0x3c782da8	0.015147604
101	0x3d8301a6	0.06396799
102	0x3d747203	0.059679043
103	0xbcc27c56	-0.023740929
104	0x3d8a08de	0.067399725
105	0x3d9863dd	0.074409224
106	0xbbd7b0bd	-0.006582348
107	0x394ca012	0.00019514587
108	0x3d3c349e	0.045948617
109	0x3d2d242d	0.042270828
110	0x3b74b09c	0.0037336713
111	0x3d2e7479	0.042591546
112	0x3d0237b1	0.031791393
113	0x3d1ca59c	0.038243875
114	0x3cd6227f	0.026139496
115	0x3ce08039	0.027404891
116	0x3ce83e4f	0.028350024
117	0xbd1a235e	-0.037631385
118	0x3aa27eaf	0.0012397374
119	0x3c43c537	0.011948875
120	0x3c194292	0.0093542505
121	0x3d333410	0.043750823
122	0xbbed52f1	-0.0072425534
123	0xbd3176f3	-0.04332633
124	0x3bfc0366	0.007690835
125	0x3cbace67	0.022803498
126	0x3bab0355	0.005218903
127	0x3dd29846	0.1028295
128	0xbb9d9d7c	-0.0048100334
129	0xbd80dbec	-0.06291947
130	0x3d1e5de5	0.038663764
131	0xbd7c8460	-0.06164968
132	0xbce31ab9	-0.027722703
133	0xbbe7a347	-0.0070690247
134	0xbd15b68b	-0.03655104
135	0xbc5a9b1a	-0.013342643
136	0xbc267bc7	-0.010161347
137	0x3d386288	0.04501584
138	0x3c6315e0	0.013860196
139	0xbdca0499	-0.09864158
140	0xbcd4ad8c	-0.02596166
141	0xbd07077d	-0.032966126
142	0xbcc57793	-0.024104869
143	0x3c65dc59	0.014029586
144	0x3c857a05	0.016293535
145	0xbda9afa2	-0.082854524
146	0xbd41d271	-0.047319833
147	0x3cfe69d3	0.03105632
148	0x3d51a2dd	0.05118071
149	0x3d4f8d82	0.05067206
150	0x3d8ab868	0.06773454
151	0x3d377b3f	0.04479527
152	0x3c818308	0.01580955
153	0xbc9958aa	-0.018719036
154	0xbd4c84a5	-0.049931187
155	0x3c3a883b	0.011385019
156	0xbc861566	-0.016367625
157	0x3c43eee3	0.0119588105
158	0xbcd70ea0	-0.02625209
159	0xbd8cf088	-0.06881815
160	0x3c8f4088	0.017486826
161	0x3d8109ec	0.063007206
162	0x3d824879	0.06361479
163	0x3d8f6bcf	0.07002985
164	0x3a187797	0.000581616
165	0xbcf9a08a	-0.030472059
166	0xbce5e31c	-0.028062396
167	0x3c3d3dae	0.01155035
168	0xbc73e99c	-0.01488724
169	0xbd809a39	-0.06279416
170	0x3c19fe34	0.009398986
171	0x3d1feeb5	0.03904601
172	0x3ce2d65b	0.027690103
173	0xbc97ed15	-0.018545667
174	0xbc08eff3	-0.00835799
175	0x3d3a6aa3	0.045511853
176	0x3d9660b9	0.07342667
177	0x3c1bbc35	0.009505321
178	0xbc854620	-0.01626879
179	0x3cdbbff5	0.02682493
180	0xbd09e307	-0.033663776
181	0xbae3203e	-0.0017328335
182	0x3d33c42c	0.043888256
183	0x3d6383b3	0.05554552
184	0x3cb5250d	0.022112394
185	0x3d16645e	0.03671681
186	0x3c5d82f0	0.013519987
187	0xbd4e04cf	-0.050297555
188	0xbcc017d6	-0.023448866
189	0x3ced20c7	0.028946294
190	0xbd69e3d2	-0.057102032
191	0xbbee3675	-0.0072696754
192	0x3cde5e15	0.027144471
193	0xbcfba37e	-0.030717608
194	0x3d49d592	0.049275942
195	0xbbf8045c	-0.007568879
196	0xbbb6bf1b	-0.0055769808
197	0xb9bd576e	-0.0003611403
198	0x3c19e482	0.009392859
199	0xbc98cf1f	-0.01865345
200	0x3d1ddbb0	0.03853959
201	0x3d61547f	0.055012222
202	0x3c5dab9d	0.013529685
203	0xbcbaaf8f	-0.022788791
204	0x3d142d5a	0.036176063
205	0x3da23f12	0.07922186
206	0xbda81342	-0.08206798
207	0xbac46689	-0.0014984171
208	0x3d2f2fc4	0.042770162
209	0x38d5a458	0.00010187243
210	0xbd0b49e1	-0.034006003
211	0xbb2defcb	-0.0026540633
212	0xbd06107d	-0.03273057
213	0x3d251c2c	0.04031007
214	0x3d2da0a9	0.042389546
215	0x3d8e68cd	0.06953583
216	0x3cbc8e62	0.023017112
217	0x3d7b35d1	0.06133062
218	0x3be88277	0.0070956307
219	0x3d17bae3	0.037043463
220	0x3c91c095	0.017792026
221	0xbd2d6c47	-0.04233959
222	0x3cea1429	0.028574066
223	0xbca7669f	-0.020434676
224	0x3d8d4334	0.068975836
225	0xbb41917f	-0.0029536185
226	0x3c609fd4	0.013709981
227	0x3d2618a8	0.040550858
228	0x3b247ed8	0.0025100019
229	0x3d0e4b61	0.034739856
230	0x3ce580eb	0.028015574
231	0xbc2832fb	-0.010266061
232	0x3bf87c08	0.007583145
233	0xbc78feb3	-0.015197444
234	0x3c8ef72d	0.017451847
235	0x3dae1dda	0.085017875
236	0xbd0403fb	-0.03223036
237	0x3d75f570	0.06004852
238	0xbc32ce7f	-0.01091349
239	0x3c2d03a1	0.010559947
240	0x3cbaa8f9	0.02278565
241	0x3d62c211	0.055360857
242	0xbd029db6	-0.031888686
243	0x3d4912e0	0.049090266
244	0x3c98e96e	0.018665995
245	0x3c0c761c	0.008573081
246	0x3d2a49a9	0.041574154
247	0xbb8a34d1	-0.004217722
248	0x3d675e1c	0.056486234
249	0xbc87e971	-0.016590806
250	0x3d882fbd	0.0664973
251	0xbd261de9	-0.04055587
252	0x3d9966f5	0.074903406
253	0xbd01bdf1	-0.031675283
254	0xbc76a755	-0.0150545435
255	0x3c5e3f3c	0.013564881

bias f4 [50]
0	0x3e21b9df	0.1579356
1	0x3e3b3a1b	0.18283884
2	0x3e201b47	0.15635405
3	0x3e3d1f48	0.18468964
4	0xbdaee633	-0.08540001
5	0x3e2c7e1a	0.16844979
6	0x3e0d8c8a	0.13823143
7	0x3e1d0bbd	0.15336509
8	0x3e06ba1d	0.13156934
9	0x3e1d1c2d	0.1534278
10	0x3e1e0f42	0.15435508
11	0x3dc74afe	0.097311005
12	0x3e19f26b	0.15033881
13	0xbdfbaef9	-0.12289233
14	0xbda3b7bb	-0.07994028
15	0xbd20066a	-0.039068617
16	0x3e1191e0	0.14215803
17	0x3c7fcbcd	0.015612555
18	0xbe078480	-0.13234138
19	0x3caf19b7	0.021374566
20	0x3e3ed074	0.18634206
21	0x3dc4272f	0.09577786
22	0x3e21eb0f	0.15812324
23	0x3e0035ed	0.12520571
24	0xbdc063b1	-0.093940146
25	0x3e38177d	0.1797771
26	0x3e2857ac	0.16439694
27	0x3d1a5da2	0.03768695
28	0x3e095558	0.13411462
29	0x3e1af25d	0.15131517
30	0x3e1d320c	0.15351123
31	0x3e357378	0.17719829
32	0x3dddc57b	0.10828682
33	0x3e3f6626	0.1869131
34	0x3e21084f	0.15725826
35	0x3dca675f	0.09882998
36	0xbdc2aff9	-0.0950622
37	0xbdb178a6	-0.0866559
38	0xbda00940	-0.07814264
39	0x3e0c2dbb	0.1368932
40	0x3ded84c0	0.11597586
41	0x3e336fc1	0.175231
42	0xbdab820c	-0.08374414
43	0x3e35ec59	0.1776594
44	0x3e4c807e	0.19970891
45	0x3e23be2f	0.15990518
46	0x3d9c5a5b	0.076344214
47	0xbdb405bc	-0.08790156
48	0x3e116234	0.14197618
49	0x3e32ac12	0.17448452

weight f4 [50, 50]
0	0x3cdf0d60	0.027228057
1	0x3d8b88ce	0.06813203
2	0x3d344ab7	0.044016566
3	0x3db68c77	0.0891351
4	0xbd3331cc	-0.043748662
5	0x3daa10f5	0.083040155
6	0x3ec2f768	0.3807938
7	0x3e0f1d64	0.13976055
8	0x3ec1b32c	0.3783201
9	0x3e1e5552	0.15462235
10	0x3dc3f29d	0.09567759
11	0x3e4dbf8c	0.200926
12	0xbb03e040	-0.0020122677
13	0xbea132e4	-0.3148414
14	0xbe35bf3e	-0.17748734
15	0xbe065bf8	-0.13121021
16	0x3d7b5cbf	0.061367746
17	0x3d69fb72	0.057124563
18	0x3ba09ffb	0.0049018837
19	0x3dd6baea	0.1048487
20	0x3e1de73c	0.1542024
21	0x3e168704	0.14699942
22	0x3e004a6e	0.12528393
23	0x3da3e75e	0.08003114
24	0xbe3e9478	-0.18611324
25	0x3d8be522	0.06830813
26	0xbd4ad278	-0.049517125
27	0x3df05033	0.11734047
28	0x3e1f7462	0.1557174
29	0x3d9ebd03	0.07750895
30	0x3df5c42b	0.12000307
31	0xbc886b20	-0.016652644
32	0x3d5249a8	0.051339775
33	0x3d89dc32	0.06731452
34	0x3e40c78d	0.18826123
35	0x3e10a2c1	0.14124586
36	0x3d8a8d1c	0.06765196
37	0xbda1caa8	-0.07899982
38	0x3d93561e	0.0719416
39	0x3e2d599a	0.16928712
40	0x3ec96e70	0.3934207
41	0xbcbb5bb7	-0.022870881
42	0xbe2f6acb	-0.17130582
43	0x3e24702e	0.16058418
44	0xbd4abb02	-0.04949475
45	0xbd3400fa	-0.043946244
46	0x3eb7bb43	0.35885057
47	0x3d67856e	0.056523733
48	0x3e21ce65	0.1580139
49	0xbd3fc216	-0.046815954
50	0xbdd00666	-0.101574704
51	0xbdcd783e	-0.100327
52	0x3cc4e05c	0.024032764
53	0x3e00d4b5	0.12581141
54	0xbcc8c4c4	-0.024507888
55	0xbda3c2a8	-0.07996112
56	0x3e81f0a8	0.2537892
57	0x3b294f46	0.0025834604
58	0x3ea579d5	0.32319513
59	0x3e0b0691	0.13576724
60	0x3c9c107c	0.01905083
61	0x3eef60b0	0.46753454
62	0x3d7cee3b	0.06175063
63	0xbea3467e	-0.3188972
64	0x3c1241dc	0.008926835
65	0xbd4c3887	-0.049858596
66	0x3da01e71	0.07818306
67	0xbbe7ccb9	-0.0070739654
68	0xbd5fdbf4	-0.054653123
69	0x3cbf6a30	0.023366064
70	0xbd2bdd08	-0.04195884
71	0xbd1a5270	-0.037676275
72	0x3d6a81ff	0.05725288
73	0x3d08528c	0.033281848
74	0x3d0152a1	0.03157294
75	0xbdd6e72c	-0.10493311
76	0x3e02a3f5	0.12757857
77	0x3d4c2267	0.049837496
78	0x3e0fe4da	0.14052144
79	0xbdb2171c	-0.08695814
80	0x3e1ccb35	0.15311892
81	0xbcf35f59	-0.029708551
82	0x3df7c51a	0.12098141
83	0x3ca4cd28	0.020117357
84	0xbd8d153d	-0.068888165
85	0x3dbee328	0.0932067
86	0xbe430092	-0.19043186
87	0xbe1ce24a	-0.15320697
88	0xbd7aa2e6	-0.06119051
89	0x3e2f17d2	0.1709893
90	0x3eed94ab	0.46402487
91	0xbd82bdc4	-0.06383851
92	0x3d1a9701	0.037741665
93	0x3c5e1008	0.013553627
94	0x3dbcff22	0.0922835
95	0x3d45edcd	0.048322488
96	0x3e6f18ac	0.23349255
97	0xbe635854	-0.22201663
98	0x3cf54b2d	0.029943073
99	0x3e021787	0.12704287
100	0x3c846689	0.016162174
101	0xbd76dbf5	-0.06026836
102	0xbdc838c2	-0.09776451
103	0x3d8b72d4	0.06809011
104	0xbd32774f	-0.043570813
105	0x3d2507b8	0.040290564
106	0x3dcd7149	0.10031373
107	0xbd6c10ce	-0.057633214
108	0x3d60d854	0.054893807
109	0x3d15e744	0.036597505
110	0x3d16740a	0.036731757
111	0xbe067612	-0.13130978
112	0x3c32889b	0.010896827
113	0x3d0c9c24	0.034328595
114	0x3e0095a8	0.1255709
115	0xbd329656	-0.043600403
116	0xbc30d512	-0.010792987
117	0xbc65e101	-0.014030696
118	0xbde22ab3	-0.110433005
119	0x3e104705	0.14089592
120	0x3c072e92	0.008250849
121	0x3d96a169	0.07355005
122	0x3d087079	0.033310387
123	0xbdb80653	-0.08985581
124	0xbe0dc8da	-0.1384615
125	0xbdd3f3ce	-0.103492364
126	0xbdacb7ed	-0.084335186
127	0x3da5b869	0.08091814
128	0x3ddb4050	0.10705626
129	0xbc0b01bd	-0.008484301
130	0x3d5df0e4	0.05418481
131	0xbc5b8c15	-0.013400097
132	0xbddd78bf	-0.10814046
133	0xbdbcd947	-0.0922113
134	0xbcf8836f	-0.03033611
135	0x3e147fb2	0.14501837
136	0x3d8f6286	0.07001214
137	0xbdfd9ffe	-0.12384032
138	0xbdf52c70	-0.119713664
139	0x3d0dbc3d	0.034603346
140	0xbd4cd997	-0.050012197
141	0xbdb60e64	-0.088894635
142	0xbdcf4d3e	-0.10122155
143	0xbd59757a	-0.05309055
144	0xbd6c5675	-0.05769964
145	0xbd918eca	-0.07107313
146	0xbd2f248f	-0.042759474
147	0xbdc3a70d	-0.09553347
148	0xbcd9ee95	-0.026603023
149	0xbd9bfc20	-0.076164484
150	0x3a780569	0.00094612554
151	0x3e07d454	0.1326459
152	0x3e206d5e	0.1566672
153	0x3e3f251a	0.18666497
154	0xbd06b732	-0.032889552
155	0x3d9ecc5b	0.077538215
156	0x3e4bddcc	0.19908828
157	0x3c25d271	0.010120974
158	0x3e8a439a	0.270047
159	0x3e30f217	0.1727985
160	0x3e3f5d4d	0.18687935
161	0x3ec8c23f	0.39210698
162	0x3da7cf87	0.081938796
163	0xbe98c651	-0.29838803
164	0x3da4164b	0.080120645
165	0x3dffa764	0.12483099
166	0xbc99e683	-0.018786674
167	0xbcbb41d7	-0.022858543
168	0x3cf62900	0.030048847
169	0x3e051013	0.12994413
170	0x3e37c0e7	0.1794468
171	0xbdb65157	-0.08902233
172	0x3db4fe14	0.08837524
173	0x3dfba11b	0.12286588
174	0xbb856b12	-0.0040716017
175	0x3e3805d1	0.17970969
176	0x3dcaaaec	0.09895882
177	0xbdb58355	-0.0886294
178	0x3dcd71e3	0.10031488
179	0x3e19ac22	0.1500707
180	0xbd1f2560	-0.038854003
181	0x3d5bfeea	0.053709902
182	0x3e3d1b5d	0.1846747
183	0x3d9091db	0.0705907
184	0x3cfd5413	0.030923879
185	0xbd3702bd	-0.044680346
186	0x3d527306	0.051379226
187	0xbddb7262	-0.10715176
188	0xbd504c2a	-0.050853886
189	0x3d8e16e5	0.069379605
190	0x3ed41ecb	0.41429743
191	0x3e251412	0.16120937
192	0xbe22ba4f	-0.15891384
193	0x3e05c4ea	0.13063398
194	0x3e3b38e7	0.18283425
195	0xbc8153cb	-0.015787026
196	0x3e15712f	0.14593957
197	0xbc818017	-0.015808148
198	0x3c8fb393	0.017541682
199	0xbd0da57a	-0.03458164
200	0x3d90ee83	0.070767425
201	0x3d13d2f5	0.036089856
202	0x3dd4b226	0.103855416
203	0x3dc505e2	0.09620263
204	0xbd1e713f	-0.03868222
205	0x3dc4a7b5	0.096023
206	0x3dd4d2f0	0.10391796
207	0xbe0900a9	-0.13379158
208	0x3d3eb65d	0.046560634
209	0x3d5c6964	0.053811446
210	0x3d950579	0.072764345
211	0x3dc62601	0.096752174
212	0xbd01bcd8	-0.031674236
213	0x3dfb18fc	0.12260625
214	0xbcfdc611	-0.030978234
215	0xbdd3570d	-0.10319338
216	0x3d94f1fb	0.072727166
217	0xb8223162	-3.86698e-05
218	0x3d545bc9	0.051845346
219	0xbd9d3bdf	-0.07677435
220	0xbe180395	-0.14845116
221	0xbd22ed3a	-0.039777018
222	0xbcaf71f5	-0.021416644
223	0x3b93b50c	0.0045076665
224	0x3e0ad38a	0.13557258
225	0x3c9ee940	0.019398332
226	0xbe16f165	-0.14740522
227	0xbe0bee14	-0.13665038
228	0xbca7e50f	-0.020494966
229	0x3d2e0c05	0.04249193
230	0xbd02626a	-0.031832136
231	0x3c4eb536	0.012616446
232	0xbe0d2509	-0.13783659
233	0xbbdb6f0e	-0.0066965884
234	0x3d816558	0.06318158
235	0x3d458dff	0.04823112
236	0xbdd382cf	-0.10327684
237	0x3d2f817f	0.042848106
238	0x3b9584ba	0.0045629414
239	0xbded7151	-0.11593879
240	0x3dca564d	0.09879742
241	0xbdb77eab	-0.08959707
242	0xbca4be98	-0.020110413
243	0xbd42a363	-0.0475191
244	0xbe17793a	-0.14792338
245	0xbe0466cd	-0.1292984
246	0x3c0ecd53	0.008715945
247	0x3dd52cc8	0.10408932
248	0x3ccac662	0.0247528
249	0x3dd960ea	0.10614188
250	0x3d4da510	0.050206244
251	0xbc92a862	-0.017902557
252	0xbdc4ada8	-0.09603435
253	0x3d042a4b	0.032266896
254	0xbe21ef5a	-0.15813962
255	0xbcf51146	-0.029915463

bias f4 [50]
0	0x3e210714	0.15725356
1	0x3e2f986a	0.17147985
2	0x3d99f798	0.07517928
3	0x3de71c4b	0.11284693
4	0xbdd7d1e9	-0.10538084
5	0x3e772d62	0.24138406
6	0xbb97f2df	-0.004637107
7	0x3e0c0e27	0.13677274
8	0x3e40b5a4	0.1881929
9	0x3d19c471	0.037540857
10	0x3d32468f	0.04352432
11	0x3e81639d	0.2527131
12	0xbdf49ef3	-0.1194438
13	0x3d3c7d11	0.04601771
14	0x3dc726df	0.09724211
15	0x3e9092ea	0.28237087
16	0x3e00818f	0.12549423
17	0x3da345da	0.079723075
18	0x3dd2e84a	0.10298212
19	0xbdb61be2	-0.08892037
20	0x3c2233ee	0.009900076
21	0x3cbdd6b2	0.023173664
22	0xbe0dbc94	-0.13841468
23	0xbdc92f09	-0.09823424
24	0xbb9adfe8	-0.0047263987
25	0x3e0a81e1	0.13526107
26	0x3d8cfb5a	0.06883879
27	0x3e94903b	0.2901629
28	0x3e42209e	0.18957755
29	0x3e612c64	0.2198959
30	0xbe46ea34	-0.19425279
31	0x3da3be30	0.0799526
32	0xbdb40614	-0.08790222
33	0xbc110247	-0.008850641
34	0x3c285f68	0.010276653
35	0x3dfb36d9	0.12266321
36	0x3e750e15	0.23931153
37	0x3dcf467c	0.10120866
38	0xbdc6a50e	-0.096994504
39	0x3e4c82bd	0.19971748
40	0x3dd75654	0.10514513
41	0x3d7d3268	0.06181565
42	0x3e97ae39	0.2962511
43	0x3e2c87e6	0.16848716
44	0x3dbc010f	0.091798894
45	0xbdca752f	-0.09885632
46	0x3e62b8df	0.22140835
47	0x3e4a31b1	0.19745518
48	0x3e79a33f	0.2437868
49	0xbe0183e8	-0.12647974

weight f4 [50, 50]
0	0x3dc518af	0.09623849
1	0x3d9ce67f	0.07661151
2	0x3e0975b8	0.13423812
3	0x3e298d66	0.16557845
4	0x3db37061	0.08761669
5	0x3e69889b	0.22806017
6	0xbe754b22	-0.23954442
7	0xbdde9292	-0.108678
8	0x3e448475	0.19191153
9	0x3b10a6fa	0.0022072182
10	0xbdea8a52	-0.11452164
11	0x3e508717	0.20364033
12	0x3d1d9719	0.038474176
13	0x3dd89de1	0.10576988
14	0x3e9fd907	0.31220266
15	0x3e190df9	0.14946736
16	0x3d476d89	0.048688445
17	0x3d1cd38f	0.038287695
18	0x3e3cdb60	0.1844306
19	0x3c9ae19e	0.01890641
20	0x3d9fc03e	0.07800339
21	0x3e4fc39d	0.20289464
22	0xbe01ebb1	-0.12687565
23	0xbe47d12a	-0.19513384
24	0xbdd49d6a	-0.10381587
25	0xbc3a7e62	-0.011382671
26	0x3e4a133b	0.19733898
27	0x3e0eae26	0.1393362
28	0x3da18637	0.078869276
29	0x3e1562c2	0.14588454
30	0xbe1566fe	-0.1459007
31	0x3dcd179c	0.10014269
32	0xbdf47aba	-0.11937471
33	0xbe562b68	-0.20914996
34	0x3ed82a4e	0.42219776
35	0xbd369cb5	-0.04458304
36	0x3d620f5d	0.055190433
37	0xbc0d7b79	-0.008635395
38	0x3e05f44b	0.13081472
39	0x3c5cf1ed	0.013485414
40	0x3f3f852b	0.74812573
41	0xbd9d1d77	-0.076716356
42	0x3dfe1c55	0.12407748
43	0xbd6cab44	-0.05778052
44	0x3e01d100	0.12677383
45	0xbe278e69	-0.16362919
46	0xbd4c3fdb	-0.049865585
47	0xbcc4aec7	-0.024009122
48	0x3cc557d8	0.024089739
49	0xbd5f5b5c	-0.054530486
50	0xbdf7976d	-0.12089429
51	0x3ce5fae6	0.02807374
52	0x3d46792c	0.048455402
53	0xbd822bb2	-0.063559905
54	0xbcf909b9	-0.030400144
55	0x3cbbe245	0.022935042
56	0xbe0ced36	-0.13762364
57	0x3d0aec80	0.03391695
58	0x3e028683	0.12746625
59	0x3d1ea556	0.038731895
60	0xbdc5756c	-0.09641537
61	0x3dcb99f5	0.09941474
62	0xbdbac845	-0.0912023
63	0xbe02de50	-0.12780118
64	0x3d1a2a24	0.037637845
65	0xbda9401e	-0.082641825
66	0x3d914856	0.07093875
67	0xbccbf542	-0.024897221
68	0xbdac7997	-0.08421629
69	0xbd7ab376	-0.061206304
70	0x3d89ac31	0.06722296
71	0xbde41773	-0.11137285
72	0x3e00f9c0	0.12595272
73	0xbb4cf4f7	-0.003127394
74	0xbde17ae8	-0.11009771
75	0x3daa9cd2	0.08330692
76	0x3d3f6c4f	0.04673415
77	0xbde6d1e5	-0.11270503
78	0x3c9e1988	0.019299284
79	0xbd7333a2	-0.059375413
80	0x3c91c36f	0.017793385
81	0x3d831461	0.06400371
82	0xbd094372	-0.033511586
83	0xbdb23580	-0.087016106
84	0xbe0489ca	-0.12943187
85	0x3c8d7336	0.01726685
86	0x3d7af3c9	0.061267648
87	0x3d6ea276	0.058260404
88	0xbd42eac8	-0.047587186
89	0x3dbc0ac0	0.09181738
90	0xbdf168d2	-0.11787571
91	0x3de6a10d	0.11261187
92	0xbe033a07	-0.12815104
93	0x3e082ff6	0.13299546
94	0x3ceeab25	0.029134342
95	0xbda89689	-0.08231837
96	0xba79cbb9	-0.0009528953
97	0xbdb4c840	-0.08827257
98	0x3d002773	0.03128762
99	0x3de9272b	0.11384424
100	0xbd152dbd	-0.036420573
101	0xbdd5f2f8	-0.10446733
102	0xbe097b33	-0.13425903
103	0x3dc5d3ef	0.09659564
104	0x3dc29f21	0.09503008
105	0xbd8f1788	-0.0698691
106	0x3e432704	0.19057852
107	0x3ca43e38	0.0200492
108	0x3cd01e58	0.025405094
109	0xbde4f712	-0.111799374
110	0x3cd0cb23	0.025487488
111	0xbc2e4044	-0.010635439
112	0x3c9f9985	0.019482384
113	0xbeb6487b	-0.35602173
114	0xbe6c604e	-0.23083612
115	0xbc9b5d3c	-0.018965356
116	0x3d2925cc	0.04129581
117	0xbdf22e48	-0.11825234
118	0xbca20c4d	-0.019781256
119	0x3d40eec4	0.047102705
120	0xbdd26660	-0.10273433
121	0x3da08175	0.07837192
122	0x3de1f9c1	0.11033965
123	0x3e7d4968	0.24735034
124	0x3d74b36f	0.059741434
125	0x3d8cd511	0.06876577
126	0xbde63bbe	-0.11241864
127	0x3e0b4d87	0.13603793
128	0xbdc47292	-0.09592165
129	0x3c4e5a79	0.012594813
130	0x3e338760	0.1753211
131	0xbc92a31f	-0.017900048
132	0x3dfe1f78	0.12408346
133	0x3db2bc07	0.087272696
134	0xbecbe43c	-0.39822567
135	0xbdbe4450	-0.09290373
136	0x3db4f71a	0.088361934
137	0xbe06c76c	-0.13162011
138	0xbc977c5c	-0.018491916
139	0x3dfc6a68	0.12324983
140	0xbf3606ee	-0.71104324
141	0x3ddf6811	0.10908521
142	0x3d49399f	0.049127217
143	0x3cb9be90	0.022673875
144	0x3dbaf663	0.09129026
145	0x3dd40572	0.10352601
146	0xbe069393	-0.13142233
147	0xbde7f185	-0.11325363
148	0x3c9f9932	0.019482229
149	0x3e0b2de5	0.13591726
150	0x3e489f91	0.1959212
151	0x3dbb6745	0.091505565
152	0x3de22abd	0.11043308
153	0x3e1032d0	0.14081883
154	0xbb6ce117	-0.0036144906
155	0x3e47ed70	0.19524169
156	0xbdcc457a	-0.09974189
157	0xbd086506	-0.03329947
158	0x3e2d2774	0.16909581
159	0xbdde2dc1	-0.108485706
160	0x3dc7a935	0.097490706
161	0x3e3baffc	0.18328851
162	0x3d6d67e8	0.05796042
163	0x3e8d1634	0.27556002
164	0x3e6a843a	0.22902003
165	0x3d809ece	0.062802896
166	0x3d2e0037	0.042480674
167	0x3e4ac00d	0.19799824
168	0x3e43c400	0.19117737
169	0x3dcc5468	0.09977037
170	0xbdc0f4be	-0.09421681
171	0xbd6dcfda	-0.05805955
172	0x3bef6be4	0.0073065627
173	0xbe234481	-0.15944101
174	0xbdcb76af	-0.099347465
175	0x3d6e4a9a	0.058176614
176	0x3e3efa65	0.18650205
177	0x3e27cdc2	0.16387084
178	0x3e3ad702	0.18246081
179	0x3e04c416	0.12965426
180	0xbe8282cb	-0.25490412
181	0x3deca6cc	0.115552515
182	0x3da667e2	0.08125283
183	0xbe11dd91	-0.14244677
184	0x3eee082e	0.46490616
185	0x3e0caa84	0.13736922
186	0x3d6d488d	0.057930518
187	0xbc59528a	-0.013264308
188	0xbdf5f448	-0.120094836
189	0x3e28ed65	0.16496809
190	0x3f0dec36	0.55438554
191	0xbdf8d086	-0.12149148
192	0x3df94555	0.12171427
193	0x3e08c461	0.13356163
194	0x3d1b4b77	0.037913766
195	0xbcd2b308	-0.025720134
196	0x3dbc2259	0.09186239
197	0x3d9bad01	0.07601357
198	0x3e283b8b	0.16428964
199	0x3dce30f0	0.10067928
200	0xbd4b54c0	-0.04964137
201	0x3d0ba502	0.03409291
202	0xbe0ed01c	-0.13946575
203	0xbdb46e61	-0.088101156
204	0x3dac4b0a	0.0841275
205	0x3d125a57	0.035730686
206	0x3da9bfea	0.08288558
207	0x3d9a19e8	0.075244725
208	0xbd760a59	-0.060068462
209	0x3ca24dfa	0.019812573
210	0xbd694e07	-0.05695918
211	0xbda69339	-0.08133549
212	0x3e006579	0.12538709
213	0x3df9e4c2	0.12201835
214	0x3df6fca6	0.120599076
215	0x3d9d7ad6	0.07689445
216	0x3d4355ab	0.04768912
217	0xbddb43da	-0.10706301
218	0x3d2559e1	0.04036892
219	0xbdf66d69	-0.12032587
220	0xbcbae050	-0.022812039
221	0xbdcd7f90	-0.10034096
222	0x3c25f264	0.010128591
223	0xbdd80da8	-0.1054948
224	0xbceef6ff	-0.029170511
225	0xbde14708	-0.10999876
226	0x3d6c6ad1	0.057719056
227	0xbdbe3c84	-0.09288886
228	0xbdd41c18	-0.10356921
229	0x3dc5ff68	0.096678555
230	0xbcbbfa30	-0.022946447
231	0x3c948d11	0.018133672
232	0xbc966c8c	-0.018362306
233	0xbbd1cf91	-0.0064029177
234	0x3da54a94	0.08070865
235	0x3dc7f437	0.09763377
236	0x3c6c91ec	0.014439087
237	0x3dad40e3	0.08459642
238	0x3cc5a0d8	0.024124548
239	0x3db1d5c2	0.08683349
240	0x3d9fa7a2	0.07795645
241	0x3d7ff3d1	0.06248838
242	0xbd00dfbf	-0.03146338
243	0xbc3a8a1b	-0.011385466
244	0x3da7f74c	0.08201465
245	0xbdd69570	-0.10477722
246	0x3dfb7a88	0.1227923
247	0x3d895d1d	0.06707213
248	0xbdfe7c20	-0.12426019
249	0x3dec431a	0.11536236
250	0xbd58837e	-0.052859776
251	0xbce8515d	-0.02835911
252	0x3dc30c19	0.09523792
253	0xbdf9eb7f	-0.122031204
254	0xbc51d790	-0.012807742
255	0x3c3a966f	0.011388405

bias f4 [50]
0	0x3dcdc23a	0.100468114
1	0x3d89f260	0.067356825
2	0xbe083fc4	-0.13305575
3	0x3dea5124	0.114412576
4	0xbd094398	-0.033511728
5	0x3d09062b	0.033453148
6	0xbe00f6da	-0.12594166
7	0xbdc4626c	-0.09589085
8	0xba9ca55d	-0.0011951138
9	0x3d1ea660	0.038732886
10	0x3d948655	0.07252184
11	0x3d3c09f5	0.045907933
12	0xbdf04c33	-0.11733284
13	0xbc7fc492	-0.015610831
14	0x3bc6aaaa	0.006062825
15	0xbd4dec6d	-0.0502743
16	0x3b415980	0.002950281
17	0x3d99301d	0.0747988
18	0x3be47aab	0.006972631
19	0x3e0db231	0.13837506
20	0xbdd3cff7	-0.103424005
21	0x3e2e1a86	0.17002305
22	0xbc9d70d0	-0.019218832
23	0xbe5bd0ee	-0.21466419
24	0x3d284ff4	0.041091874
25	0x3d8b8d6a	0.06814082
26	0x3dad96ec	0.08476052
27	0xbd19e588	-0.037572414
28	0xbe52ed3d	-0.20598312
29	0xbc6b4b1f	-0.014361172
30	0xbcae1afa	-0.021253098
31	0x3d6e72a0	0.058214784
32	0xbe0dffa3	-0.13867049
33	0x3e42cd04	0.1902352
34	0x3d33b598	0.043874353
35	0x3e89bbca	0.26901084
36	0x3dbffc4c	0.09374294
37	0xbe092f3d	-0.13396926
38	0x3e03dc2b	0.12876956
39	0x3dd48a7b	0.103779756
40	0x3e5a1fce	0.21301195
41	0x3ddc2d13	0.10750785
42	0x3ddf2d7a	0.10897346
43	0x3e0382b0	0.12842822
44	0x3dee0bca	0.11623342
45	0x3e246fd6	0.16058287
46	0x3e307d1e	0.17235228
47	0x3de0af5b	0.109709464
48	0xbdbfa50d	-0.09357653
49	0xbc8a2e44	-0.016867764

weight f4 [1, 50]
0	0x3e2fa67e	0.17153355
1	0xbdaa5fed	-0.08319078
2	0xbe98315c	-0.29725158
3	0x3e34c804	0.17654425
4	0xbd9305ce	-0.071788415
5	0xbdc92fab	-0.09823545
6	0xbda711d3	-0.081576966
7	0x3e0c390b	0.13693635
8	0xbdaa3e42	-0.08312656
9	0xbeaec937	-0.3413789
10	0xbd52bd73	-0.051450204
11	0x3e16c47e	0.14723393
12	0xbd0930be	-0.03349375
13	0x3da03b3a	0.078237966
14	0xbd378f85	-0.044814605
15	0xbdaab8ac	-0.083360046
16	0xbd97c882	-0.07411291
17	0xbde1c15c	-0.110232085
18	0xbc81e5e5	-0.015856693
19	0x3d920c6e	0.07131277
20	0xbccecdc3	-0.0252446
21	0x3e37d042	0.17950538
22	0x3ded8042	0.11596729
23	0xbe7f16be	-0.24911019
24	0xbe99bd58	-0.3002727
25	0xbe043834	-0.12912065
26	0xbe01783f	-0.12643526
27	0x3db0ffea	0.08642562
28	0xbed5ab33	-0.41732177
29	0xbdbca8af	-0.09211861
30	0xbd7d7b2c	-0.061885044
31	0x3e5c21c3	0.21497254
32	0xbe970825	-0.294984
33	0x3e385981	0.18002893
34	0x3e0b6c3f	0.13615511
35	0x3e48a3ca	0.1959373
36	0xbda6f7d7	-0.081527404
37	0xbdd4cf80	-0.1039114
38	0xbc0d3fd9	-0.0086211795
39	0x3d5bfa78	0.053705662
40	0x3e59dff3	0.21276836
41	0x3e6c0db5	0.23052104
42	0xbe4f235c	-0.20228332
43	0x3bbbf98c	0.0057365354
44	0x3e015a59	0.12632121
45	0x3dcf9a78	0.101368845
46	0x3e3d4975	0.18485053
47	0x3e6182b0	0.2202251
48	0x3cd6d3f0	0.026224107
49	0x3c0761f2	0.008263098
